best_pytorch_model.pth (torch, 13145 bytes, 5 tensors)

fc1.weight f4 [64, 5]
00000000: 3470 a23e 1e0f 6a3e 4769 91bc 951a 463d
00000010: 318d 9cbe cbcd 6f3d a01a dfbd f0f6 58be
00000020: 2b88 23bd 2f08 c43c 3b8a cebe 45a6 223d
00000030: 588a 5f3d 073a 7d3e 8615 373e 36a5 613e
00000040: 07a9 b83e a269 24be 1fa9 e33e a550 de3e
00000050: 7768 19be 2277 c3be cb3f 62be 3de2 503e
00000060: 8f18 583e 8fea a1be a5f5 6d3c d656 a8be
00000070: 67ff d03c 306b 8ebe 5c82 b53d c92c adbe
00000080: a24e 683e fc0f 97be 36e7 8a3e 6566 3dbd
00000090: d05c e3be f937 a4be 34a3 e1be d007 03bd
000000a0: 77a0 cabe f9a2 513d b068 d5be fd1d babe
000000b0: a30d 35be 10dc 77bd 7997 593d 54ba 2dbe
000000c0: f5c0 843e 20bb b43e 814b c4be c75b 293e
000000d0: 1843 013e 9758 91be 6f87 463e 4a9b c43e
000000e0: 8c03 e43e 1a93 4c3e 2b59 e83d 2434 853e
000000f0: d1f1 a3be 1c3a cb3e 7135 7cbe c137 d93e
00000100: ea7e d83e eae1 37be d41d 1c3e 4a4d b93c
00000110: 71fd 00be 09ed 01be cbb5 d63e a256 4dbe
00000120: 91a6 ab3e 1fc7 8c3e 2354 8dbe 5c10 bfbe
00000130: 84d5 f33d e59b 013d 2ceb 1d3e af31 38be
00000140: 04c7 1cbd cd88 a13e f934 d93c 16ee c8be
00000150: 5bff dcbe 38be 09be 0463 cf3e c616 063d
00000160: c2e5 aabe afd4 6f3e 424b debc 4cc4 c63e
00000170: 0620 c93e 76f5 a7bd b020 8abe d4ca 753e
00000180: 0604 4e3e 62c7 dc3d 0ff7 8a3c 75e6 aa3c
00000190: b23c 4ebd 93ad 18bb c580 ca3e a7af bcbc
000001a0: 43a4 953d c214 e43e 41a4 5ebe 0f6c 023e
000001b0: 6734 d33d ada7 ddbe fd28 373e 8886 d73e
000001c0: 9597 ae3e 2ce1 89bd 093e 54be 41dd e2bd
000001d0: 8bf1 3abe 20b0 3bbd 7c60 4ebe 4dc4 cbbe
000001e0: 6ab1 ebbd b81e 0a3c 2b9e 793e 02bf 0c3e
000001f0: 66d3 983e b946 dabd 3632 09be d427 973e
00000200: 9246 b53d 0c5a 843e c855 5dbe 0759 babe
00000210: f6e2 a4be 22c1 dabe 1134 07be 63c6 773e
00000220: 71d4 b83e 8e1b 8bbe 88db ba3c 6577 ef3d
00000230: 0192 32be a706 893d ca53 dd3e af97 a4be
00000240: 31ec 5a3e 0d08 473d 7759 913e b46e 943e
00000250: 3a79 d0be eb19 53be d68a 39be ff3f debd
00000260: 20d1 b63e 5a67 b63e 3b7a c83c 967f 133c
00000270: 6647 64be 7234 d0be b980 2dbe 657a 943e
00000280: 699d 04be 0d34 9c3a b136 51bd c0f8 c0bd
00000290: e56d 813e 67ed 50bd 0205 c6be cc69 a1be
000002a0: fad3 973d 7b30 20be d15b 893d 944f aebe
000002b0: 646c 463e 9a15 733e adfc 75be 0885 98be
000002c0: b474 9ebe 51d1 33bd ee8d f13d f90f ecbd
000002d0: 5866 dfbc 3bf0 b43d 91e2 e43d 9841 afbe
000002e0: 702e e4be 00ef a4bc fef5 35bd 703f 76be
000002f0: 57ef d43e b6f8 8f3e 4b9f 0a3c 8316 fb3d
00000300: 9bd9 f93c 9740 c13e 6299 833e 1a6a a0be
00000310: 04a4 3f3e adaf 1b3c b458 92be 9971 80be
00000320: 6c73 01bd 0438 d7be fc95 d53e c3f7 f83c
00000330: 5999 93be 014e d33d 3df3 0e3e 9fd5 4b3e
00000340: 280d 973e 6793 32bd 58d8 e7bd ef1f 823e
00000350: 622a 44be 43dc 8bbe 7d77 6cbe 4456 de3e
00000360: 9bf4 593e 94cc 6fbe b91c a33e bcda 32be
00000370: da2f ba3e 5303 64bd dbb4 27be 0da2 773e
00000380: 1bf0 e23e d616 983e 38c0 cfbe 9f5b 2f3e
00000390: 76f4 9bbe d62b ebbd b749 b5be 11fc 85be
000003a0: 8055 74be 229f adbd 1ef1 893e 0134 a93e
000003b0: d2e0 7b3d 192b 733e 79a6 013e 05de 783e
000003c0: 84bc 743e 4c45 68bc fdc1 5cbe 7a1c 2dbe
000003d0: 2f96 c13e 0368 0e3d 5c1a 8a3d a946 a93e
000003e0: 4c6f 173e e424 a63d 8cd6 df3e ea63 c2bd
000003f0: 7e2b b03e efed b8be e9ab 553e 3114 fb3d
0.3172623 0.22857329 -0.017750395 0.048365194 -0.3057647 0.05854587 -0.1089375 -0.21187949
-0.03992478 0.023929683 -0.40339836 0.03970935 0.054575294 0.24729167 0.17879304 0.22035679
0.36066458 -0.1605592 0.44464967 0.43420902 -0.14981256 -0.3817683 -0.22094648 0.20398803
0.21103118 -0.31624267 0.014523898 -0.3287875 0.02551241 -0.27816153 0.08862755 -0.3382323
0.22686246 -0.29504383 0.27129525 -0.04624023 -0.44406748 -0.32073954 -0.44069827 -0.031989872
-0.3957555 0.051180813 -0.41681433 -0.36351004 -0.17680983 -0.060512602 0.05312297 -0.1696561
0.25928465 0.35299015 -0.38338855 0.16538917 0.1262325 -0.283879 0.19387601 0.38399726
0.44533956 0.1997799 0.113451324 0.26016343 -0.3202043 0.3969277 -0.24629761 0.4242535
0.42284328 -0.17957273 0.15245754 0.022619862 -0.1259668 -0.12688078 0.41935572 -0.20052579
0.33525518 0.27495667 -0.27603254 -0.3731717 0.11905959 0.031642813 0.15421742 -0.17987703
-0.038275734 0.31549683 0.026514517 -0.39244145 -0.4316357 -0.13451469 0.4050523 0.032736562
-0.33378416 0.23420976 -0.027135495 0.38821638 0.39282244 -0.08201115 -0.26978064 0.24003154
0.20118722 0.10780217 0.01696351 0.020861844 -0.050350852 -0.0023296818 0.39551368 -0.023032976
0.07306721 0.44547087 -0.21742345 0.12736534 0.10312729 -0.4329199 0.1788673 0.42094827
0.34100023 -0.06732401 -0.2072679 -0.11077357 -0.18256204 -0.045822263 -0.20153993 -0.39798203
-0.115084484 0.0084301755 0.24376743 0.13744739 0.29848784 -0.106580205 -0.1339806 0.29522574
0.08851351 0.2584995 -0.21614754 -0.36396047 -0.32204407 -0.42725474 -0.13203456 0.24196772
0.3609958 -0.2716946 0.022809759 0.116926946 -0.17438509 0.06690722 0.43227988 -0.32146975
0.21379162 0.048591662 0.2838857 0.2899071 -0.4071749 -0.20615356 -0.18119368 -0.1085205
0.35706425 0.35625726 0.024472347 0.009002587 -0.22292861 -0.40665013 -0.16943635 0.2899963
-0.12950672 0.0011917368 -0.05107755 -0.09422445 0.25279155 -0.051007655 -0.38675696 -0.3152603
0.07413478 -0.15643494 0.06706966 -0.34045088 0.19377285 0.23738709 -0.2402217 -0.29788995
-0.30948412 -0.04390079 0.11794649 -0.11526484 -0.027270481 0.08834883 0.111760266 -0.34229732
-0.4456668 -0.020133495 -0.04442405 -0.24047637 0.41588852 0.2811944 0.00846083 0.12260153
0.03049927 0.3774459 0.2570296 -0.3133095 0.18714911 0.009502334 -0.285833 -0.25086668
-0.031604216 -0.42034924 0.41715991 0.03039158 -0.28827932 0.103176124 0.13959976 0.19905709
0.29502225 -0.043597605 -0.11320561 0.25414988 -0.19156793 -0.27316484 -0.23092456 0.4342519
0.21284716 -0.23417884 0.3185785 -0.17466253 0.36364633 -0.055667233 -0.16377585 0.24182911
0.4432381 0.29704922 -0.4057634 0.17124794 -0.30459946 -0.114829704 -0.35407802 -0.26168874
-0.2386074 -0.08477618 0.2694177 0.33047488 0.061493702 0.23746909 0.1266116 0.24303444
0.23900038 -0.014176678 -0.21558376 -0.16905394 0.37809893 0.034767162 0.06743309 0.33061722
0.1478855 0.08112505 0.43718374 -0.09491713 0.34408182 -0.3611903 0.2086636 0.122597106

fc1.bias f4 [64]
00000000: fa93 7f3e fb74 8c3d 489a 613d 1777 493e
00000010: 623d adbe c82d d5be 97c1 dbbe b779 e23e
00000020: af05 9ebd 101a 103e ea7a debe 25ec 563e
00000030: 0832 093e 9077 ef3d c9b6 3fbc 9beb 1d3d
00000040: 0ac9 41be e551 09bd d86d 723d e531 5fbe
00000050: d4c8 393d 21b1 893e 29bf d8be a129 0ebd
00000060: 8816 c13e 941a 36be 0844 11be 118e 71be
00000070: 605a 643e fd8e f0bd 7f1f b83e 4dae 65be
00000080: 2dbf 70bd d367 cf3e aab1 5bbe 6e52 923e
00000090: 9185 66be 8fa3 b3bd c73a 6c3e 07f0 a1bc
000000a0: 758a c0bd d4e4 b5be e74c b9be 1ed0 a23e
000000b0: a6c0 97be b9f7 d3bd d6c5 86be 3f11 193e
000000c0: 0d45 d4be a69f c33e 1a36 033e 381a a43e
000000d0: fc95 98be 773b ecbd c787 b43d 2008 9f3e
000000e0: f86c b93e 3c6b cbbe d93a c1be 2c4a 393e
000000f0: 92a1 eebd b8e0 adbe f4ce ce3e df0f 253d
0.24958792 0.0685825 0.055078775 0.19674335 -0.33835894 -0.4163649 -0.42921135 0.44233486
-0.07715928 0.14072442 -0.4345315 0.2098852 0.13397992 0.116927266 -0.011701294 0.03855477
-0.18924347 -0.033525366 0.059186786 -0.21796377 0.04535754 0.2689295 -0.42333344 -0.03470767
0.37712502 -0.17783576 -0.14186108 -0.2358935 0.223001 -0.11746023 0.3596153 -0.22429772
-0.05877607 0.405089 -0.21454492 0.28578514 -0.22511889 -0.08771431 0.23069297 -0.019767774
-0.094014086 -0.35526145 -0.36191484 0.31799406 -0.29639167 -0.10349984 -0.26322812 0.14947985
-0.41458932 0.3820774 0.12813607 0.32051253 -0.2980193 -0.115347795 0.0881496 0.31060886
0.3621595 -0.3973025 -0.3774021 0.180947 -0.11651911 -0.3396051 0.40392268 0.04029834

fc2.weight f4 [32, 64]
00000000: 9e17 f53d e00f be3c 2059 c7bc 28e7 753d
00000010: 3eeb c73d 186f a7bc ec47 61bd c06b b63d
00000020: d025 513c e05c edbb ce4a ed3d f296 a0bd
00000030: 6045 adbd 14f9 613d 6030 bcbc 9c30 46bd
00000040: 681e f7bd 9013 143d 0cb6 b13d d0c7 ffbd
00000050: 00c0 53b8 fa6b 9ebd ea14 c2bd b8b4 e0bc
00000060: 3e0b 8bbd a414 96bd 300a 0cbc d005 5f3c
00000070: 06e5 f53d a4a5 ebbd e00a a73c a8db d43d
00000080: fe39 afbd f040 f53d 9288 ca3d 4cb7 e9bd
00000090: 1c36 53bd 70a3 213c fc94 363d 3017 363d
000000a0: 001a af3d 743c c93d 9cf8 96bd 2011 e73c
000000b0: 6485 c53d e8f8 f4bc 88c2 67bd 82c6 b4bd
000000c0: 0cf4 afbd 4257 f43d 0c3f 2cbd 08ee cb3c
000000d0: aeb0 b13d 768a 83bd 0012 f2bd 9856 7cbd
000000e0: a84b 963c a8b0 e53c 267f d4bd b0c1 4d3d
000000f0: 5c5c fabd fc5e 94bd 3819 b23d 7ef6 d4bd
00000100: 9c80 963d 8821 773d 9891 8a3d 9e1e c1bd
00000110: a037 4e3c 408d e83b 4067 4dbb 84d1 6b3d
00000120: 0057 4cbb f01d d1bc 000e 943d 881a 9f3c
00000130: d00d b5bc e426 2f3d a282 fcbd 4c59 aabd
00000140: 30e4 afbc 70ec 7fbd b001 ef3d 007f 463d
00000150: 3cf9 203d 84fe 1e3d 8400 15bd 8ce4 f43d
00000160: a2cc e03d 8071 4bbb 0459 6dbd 62d0 a93d
00000170: 80ab 8ebd 60f1 dcbc 5cdc 3e3d 106b 09bc
00000180: f06c 49bc 888a 8c3d b00a 2f3c 24e1 12bd
00000190: 2c6e 52bd 3891 67bd 942d 1a3d aa4d 9d3d
000001a0: 4ace 99bd 7c78 903d 98f1 ec3c 3245 c13d
000001b0: d011 f53d 806a 4fbd 1adb d5bd 9047 94bd
000001c0: 7c5c adbd 609e e2bd a8cd 10bd 3c91 8b3d
000001d0: d2a0 e3bd f8f5 c53c 92d1 c93d 1010 8cbd
000001e0: e0c2 963c 3ab5 e53d 4427 a3bd 9074 77bd
000001f0: dc26 713d 60f3 e23d 00c4 3339 a836 4f3d
00000200: cc1a a03d 54a8 08bd 5e02 a63d ac88 bd3d
00000210: 58f2 e1bd b8b0 b0bd c080 3f3c 3250 c7bd
00000220: 7c2f 083d 9816 a93c 58e5 cb3d 1452 c73d
00000230: 4259 85bd 6073 1ebc 0068 8939 c0d7 87bb
00000240: a01c af3d 16c8 cb3d e032 b6bd 745b 7d3d
00000250: 16b8 eabd de68 c4bd f882 8fbd 48a6 d9bd
00000260: d476 5b3d 6c3d b6bd 58b9 8dbc d40f 1bbd
00000270: c4ee e43d 22af 95bd 7080 423d 20f7 15bc
00000280: 9ca8 4bbd 10d1 cf3c a07a 5cbc 00b2 f53d
00000290: 9ea6 fd3d 64d9 c13d c076 d73b 7cf0 85bd
000002a0: 6c75 9f3d 9875 40bd 84cc 0cbd cca6 c03d
000002b0: 402f d43d e6a9 ea3d 62d9 83bd 1ebb 943d
000002c0: de4d e1bd 1093 7abc 686c 31bd c076 1abc
000002d0: 0e7e a6bd c0ac f0bc a867 c5bd 1011 e0bd
000002e0: 0862 483d a691 86bd 0080 c23d 6ac2 a4bd
000002f0: 960d 8fbd 709b 493d e899 57bd 9c40 353d
00000300: 2666 8bbd 38bb 2abd c012 cb3c 385c 82bc
00000310: 104e 70bd d89b f9bd 247e 3bbd b8a0 febc
00000320: f8c6 94bc 8021 93bb 0c7b 3fbd 1c08 3a3d
00000330: 0a4e 9abd 7cde 0fbd 5012 e43d 64ef c63d
00000340: 00f6 2fbb 082c 5cbd ca79 f13d 088b cc3c
00000350: 58bf 83bd 00af aeba 48b4 5f3d f42c 143d
00000360: c8f4 32bd 1c56 45bd 5cc3 afbd 9c73 363d
00000370: 4076 603c a8d1 65bd a2cc 9e3d a293 c93d
00000380: 16e7 813d 7298 92bd 6071 8b3d 5c63 b8bd
00000390: c0f9 fcbb bcb2 243d 10c2 e23d 08da 46bd
000003a0: 001b 3cbc a849 ff3c 7031 e63d 30d5 c93d
000003b0: 0863 c23c 42ee 8b3d 8e6f dabd f0b7 9f3d
000003c0: ac22 3f3d 4498 863d d096 81bd a04e f73b
000003d0: f45d 82bd 8897 2fbd e8dd 24bd 3c6b 93bd
000003e0: f024 b7bc f4ae 4abd 28f4 09bd 583e 103d
000003f0: 4089 3fbb b00f 2dbd aecb 883d 90d1 c8bd
0.11967395 0.02320093 -0.02433449 0.0600349 0.09761666 -0.020438716 -0.05500023 0.089072704
0.012765363 -0.0072437376 0.115865335 -0.078412905 -0.08460498 0.05516918 -0.022972286 -0.0483862
-0.120663464 0.03615147 0.08677301 -0.12489283 -5.0485134e-05 -0.07735439 -0.09476645 -0.027429923
-0.06789254 -0.07328156 -0.008547351 0.013612226 0.120065734 -0.11506203 0.020390928 0.103934586
-0.08555983 0.119752765 0.0988933 -0.11411914 -0.051565275 0.009865627 0.044575676 0.044455707
0.08549881 0.09825984 -0.07371637 0.028206408 0.09644583 -0.029903844 -0.056582004 -0.08826925
-0.0859147 0.119307056 -0.042052314 0.024893776 0.08676277 -0.06422894 -0.118198395 -0.06160602
0.018346623 0.028038338 -0.10375814 0.050233543 -0.122246474 -0.07244679 0.08696216 -0.10398577
0.07348749 0.060334712 0.06766051 -0.09429668 0.012586504 0.0070969164 -0.003134206 0.057572857
-0.0031179786 -0.02552697 0.07229233 0.01942183 -0.022101313 0.0427617 -0.12329604 -0.08317813
-0.021471113 -0.062481344 0.11670244 0.04846096 0.03930019 0.038816944 -0.036377445 0.11957654
0.109765306 -0.0031042993 -0.05794622 0.08291699 -0.06966305 -0.026970565 0.04659687 -0.008387342
-0.012294039 0.0686236 0.0106837 -0.035859242 -0.0513746 -0.056534976 0.037641123 0.07680829
-0.0751005 0.070542306 0.028923795 0.09437026 0.11966288 -0.050638676 -0.10442181 -0.07240212
-0.084649056 -0.11065364 -0.03535238 0.06814811 -0.111146584 0.024165139 0.098544255 -0.06839001
0.01840347 0.11216207 -0.07966474 -0.060413897 0.05887495 0.11081576 0.00017143786 0.050589234
0.07817611 -0.033363655 0.0810592 0.09254584 -0.110325515 -0.086274564 0.011688411 -0.09732093
0.03324841 0.020640656 0.09955853 0.09732452 -0.06511165 -0.009671062 0.00026208162 -0.0041455925
0.08550382 0.09950273 -0.088964224 0.061854795 -0.11460893 -0.09590314 -0.07007402 -0.10627419
0.05358012 -0.08898434 -0.017300293 -0.03785689 0.111783534 -0.073087946 0.04748577 -0.0091531575
-0.049721345 0.025368243 -0.01345697 0.119968414 0.12385295 0.09465292 0.0065754354 -0.065400094
0.07786068 -0.046987146 -0.03437473 0.09406814 0.10360575 0.11458187 -0.06437947 0.07262252
-0.1100118 -0.0152938515 -0.043316275 -0.009427726 -0.08129512 -0.029379249 -0.096389115 -0.109407544
0.048921615 -0.06570749 0.0949707 -0.08044894 -0.06985013 0.049220502 -0.05263701 0.04425107
-0.06806593 -0.041682452 0.024789214 -0.015913114 -0.058668196 -0.12187928 -0.045774594 -0.031082496
-0.018161282 -0.0044900775 -0.046748206 0.04541789 -0.07534416 -0.035124287 0.11136305 0.09713629
-0.0026849508 -0.05375293 0.117908075 0.024968639 -0.0643298 -0.00133273 0.05461529 0.036175683
-0.043690473 -0.048177823 -0.08582184 0.044543847 0.013700068 -0.056108147 0.07753874 0.09842612
0.06342904 -0.07157983 0.06808734 -0.09003326 -0.007720202 0.040209517 0.11072171 -0.048547775
-0.011481047 0.031163052 0.11239898 0.098551154 0.023728862 0.068325534 -0.106658086 0.07798755
0.046663925 0.06572011 -0.06327593 0.0075472146 -0.063655764 -0.04286912 -0.04025069 -0.07198188
-0.02235648 -0.049483255 -0.03368011 0.035215706 -0.0029226094 -0.04225129 0.06679474 -0.09805596

fc2.bias f4 [32]
00000000: 108a 1fbd 001b e03b ecd7 47bd d6e4 923d
00000010: b8b4 f43d 48f3 5f3d 20a8 1a3d 5ca5 bdbd
00000020: 900c abbc 009f 4f3a c056 1e3b 7842 c3bd
00000030: bcf6 e1bd 0669 a83d 50f9 d43c 98b7 40bd
00000040: 22bd fcbd e002 a83d 9885 fbbc e028 f0bd
00000050: f856 adbc 1cf0 97bd 0acd f73d 4eb9 fe3d
00000060: 0c85 4ebd 622a b13d a841 89bd c00c c63c
00000070: 30fa aa3c 8659 bc3d f4e4 9e3d b021 893c
-0.038950026 0.006839156 -0.048789904 0.07172553 0.11948532 0.05467537 0.037757993 -0.092600554
-0.020880014 0.0007920116 0.0024160594 -0.09534162 -0.11033389 0.08223157 0.025997788 -0.04705009
-0.12340762 0.08203673 -0.03070335 -0.11726546 -0.021159634 -0.07418844 0.12099655 0.12437688
-0.050419852 0.08650662 -0.06701976 0.024176002 0.020871252 0.09196763 0.07758513 0.016739696

fc3.weight f4 [1, 32]
00000000: f42b 133d e50f 8cbd 68ee 17bd 8485 3c3d
00000010: be0a d63d bc4f f73c 09c7 f53d d270 aabd
00000020: d7a5 6b3d 7d29 25be fdab 493c ec2f 1f3e
00000030: 846b 13be c29b 10be 0f4f d13d 01a0 1c3d
00000040: 6747 a1bd 629d cd3b 0b73 b2bd 1c3f b1bd
00000050: 003f 8d3d ed49 0dba bf39 cfbd cfbd 263e
00000060: ba86 143e 042a fbbc 61ec 163d 0b1c 243d
00000070: 8b7e ae3d 6f3f d4bd 568d 9d3d 1cf3 33be
0.03593059 -0.06838969 -0.037092596 0.046025768 0.10451268 0.030189388 0.120008536 -0.083223
0.057531204 -0.16129108 0.012309072 0.15545624 -0.14396483 -0.14121917 0.10220157 0.03823853
-0.07874947 0.006274865 -0.08713349 -0.08654615 0.06896782 -0.0005389739 -0.10118436 0.16283344
0.14504519 -0.030659683 0.036846522 0.040065806 0.0852023 -0.103636615 0.07692973 -0.17573208
